models/Part1_Subpart1_Step3.pth (torch, 5009 bytes, 8 tensors)

weight f4 [15, 3]
00000000: 4ebc ac3d 05fc 933e 1a09 153e 8b59 c9be
00000010: 36aa d93e c8ff ecbe daf7 f7be 2198 a03d
00000020: 04c5 e7bd 009d 083f e944 853e 0297 09bf
00000030: 6014 2ebd 6435 9bbe 6834 56be bfa0 9d3c
00000040: 02c4 97be f133 1f3d b970 2fbe 5103 18be
00000050: 5541 e63e 92f7 ed3e 19f2 d6bd 837c 56be
00000060: c05d ea3d b65a 68be 9f2d c83e 803c 2c3e
00000070: 6ea4 a63e a78e f33e 5e7f b2be a1b4 e93e
00000080: 2a78 8fbe ef36 853e 0a22 06be ab4e 893e
00000090: 627c 35be 101f b3bd 0ab3 eebe 3ea7 c43e
000000a0: 2a63 df3e a3a0 293d 34bf 223e d871 e3be
000000b0: 3b47 cabe
0.08434354 0.28903213 0.14554253 -0.39326128 0.42512673 -0.46288896 -0.48431283 0.07841516
-0.113168746 0.53364563 0.26029137 -0.53746045 -0.0424999 -0.3031417 -0.20918429 0.019241689
-0.2964173 0.038867895 -0.17132844 -0.14845015 0.4497172 0.46477944 -0.10495395 -0.20945935
0.11443663 -0.22690853 0.39097306 0.16819954 0.32547325 0.47569773 -0.34862798 0.4564562
-0.28021365 0.26018474 -0.13098922 0.2681783 -0.1772323 -0.08746159 -0.4662097 0.38408846
0.43630344 0.04141296 0.1589325 -0.44422793 -0.3950747

bias f4 [15]
00000000: 888d 10bf 6c84 053f 5b64 be3e 97d6 c8be
00000010: 88be bdbd 1114 b03e 8ec3 a13e 56f7 c33e
00000020: 9469 b43e 8866 a53e 17c0 b53e d5ed 463e
00000030: 7235 68be 03ec 4d3e 9317 90be
-0.5646596 0.52155185 0.3718594 -0.3922622 -0.092648566 0.3439031 0.3159451 0.3827464
0.352368 0.32304788 0.35498115 0.19426663 -0.22676638 0.20109563 -0.28142986

weight f4 [10, 15]
00000000: e4ce 72be 7aee 793e 8812 87bd 88a6 35be
00000010: b339 29be 96dc 2f3e b870 223e 803a 24bc
00000020: 52d6 32be 2642 7d3e 1e75 4abe a0d3 7bbc
00000030: 0434 e13d 5397 49be 8499 8bbd 70fa e5bd
00000040: 2a7f 3ebe 88c7 e6bc 5e71 3dbe 8047 843b
00000050: 7e96 d5bc 55dc 97bc 08a5 06bc 0cd0 4b3e
00000060: 1599 783e a221 3bbe 3b37 6d3e 989c 133d
00000070: 03d0 88be 57e6 803e d45c 043e c6ba 29be
00000080: aba4 39be 24ad 37bd 0491 ee3d 5546 38bd
00000090: 71f2 573e 5947 77bd e610 ad3d 218d aa3d
000000a0: 7bbf 73be ce62 20be 30f3 3abe 361c c2bd
000000b0: 18f2 333d 5f18 5cbe 5ca2 d4bd 1a32 483e
000000c0: 504d 313d 16bb 763e 6955 753e 0044 7fbe
000000d0: dc3a 7bbd b123 4d3e fe57 4abe e7d5 0dbe
000000e0: cd17 223d a480 253e 0d69 173e 68d2 3abe
000000f0: 29ab 0ebe 1822 bfbc 0079 33be ab46 07be
00000100: 2178 81be f872 d3bd 5bd5 2e3d ce7d bc3d
00000110: 4058 2f3e 9fee 593d 0065 83be 2ba9 063e
00000120: 9081 33be 17ba 7abe d840 c53d a2d7 97bd
00000130: b054 983c ee99 eebd ffe6 81be e088 b53d
00000140: 9030 ecbc de8a 82be f65d f0bd d133 5bbe
00000150: 7a8a c4bd c80a 2fbe 4825 123d 6810 16bd
00000160: 2096 1fbd 78bd d43d dc73 6fbe 1cfe 24bd
00000170: 9b57 02be d831 8bbc 8495 653e c4d1 ac3d
00000180: 87c3 1fbe 3c4e 6ebd 46e7 603e a089 6abe
00000190: 81a5 1fbe 8a62 53be 0026 2d3b d0cc b5bc
000001a0: f4ff 64be 6c6c a0bd 99a5 50be 00dc 6cbd
000001b0: 80eb b3bd 9054 4a3e 280f 273e f4ae 4e3e
000001c0: b6a0 703e 47ee 7dbe a67e 8abe 709f 083e
000001d0: a885 dd3d b0eb 4a3d fbbc b8bc 801a 143b
000001e0: 58a5 84bd c588 4a3c 676b 553d c4ef 6c3e
000001f0: 08f0 9b3d 496a 8cbd ff5f 05be fe1a 5fbd
00000200: 1119 fbbd 4429 3c3e 2b11 0fbc ce21 9f3d
00000210: 0e82 7c3e 817a 913d 18a4 373e 8cc3 f53d
00000220: 2c8a 64be 84fe fe3d 70e3 92bd da73 c9bd
00000230: 20d3 dfbd 0c39 6f3e 7851 363d a0b6 00bd
00000240: c999 13be 0005 163c c0d7 9ebc 1e67 583e
00000250: b5ff 80be f45b ee3d
-0.23711735 0.24407378 -0.065953314 -0.17739308 -0.16525917 0.1717399 0.15863311 -0.010023713
-0.17464569 0.24732265 -0.19771239 -0.01537028 0.10996249 -0.19686632 -0.0681639 -0.11229408
-0.18603197 -0.028171316 -0.18500277 0.004036844 -0.026072737 -0.01853768 -0.008218057 0.19903582
0.24277146 -0.18274549 0.231656 0.03603801 -0.267212 0.25175735 0.12926036 -0.16575155
-0.18129222 -0.044842854 0.11648753 -0.04498895 0.21088578 -0.060370777 0.08450489 0.083276995
-0.23803513 -0.15662691 -0.18256831 -0.09478037 0.04393205 -0.21493672 -0.1038253 0.19550362
0.04328662 0.24094805 0.23958363 -0.24928284 -0.06133543 0.20033146 -0.19760129 -0.13851129
0.03957348 0.16162354 0.14786167 -0.18244326 -0.1393248 -0.023331687 -0.17526627 -0.13210551
-0.25286964 -0.10324663 0.04268394 0.09203683 0.17123508 0.053206082 -0.25662994 0.1315047
-0.17529893 -0.2448505 0.096315086 -0.074141756 0.01859507 -0.116504535 -0.2537155 0.088639975
-0.02883175 -0.25496572 -0.117366716 -0.21406485 -0.09596725 -0.17093956 0.035680085 -0.03663674
-0.03896153 0.10387701 -0.2338404 -0.0402814 -0.12728731 -0.01699154 0.22420317 0.08438447
-0.15601932 -0.05818008 0.21963224 -0.22904062 -0.15590478 -0.20643058 0.0026420355 -0.022192389
-0.22363263 -0.0783318 -0.2037567 -0.057826996 -0.087851524 0.1975882 0.16314375 0.20183927
0.23498806 -0.24797927 -0.2704975 0.1334207 0.108165085 0.049541175 -0.02255105 0.0022598803
-0.06476849 0.01236171 0.05210438 0.23138338 0.07614142 -0.0685621 -0.13024901 -0.0544691
-0.122606404 0.18375117 -0.0087321205 0.077701196 0.24658987 0.07103444 0.1793369 0.12000188
-0.22318333 0.12450889 -0.071722865 -0.0983655 -0.10928941 0.23361605 0.04451129 -0.031424165
-0.14414133 0.0091564655 -0.019389987 0.21133086 -0.2519509 0.116386324

bias f4 [10]
00000000: 5de3 13be 62a7 acbc 4c96 0d3e dfff fe3d
00000010: 731c 703e 5e5d 60be bed4 283e be23 1e3e
00000020: 7e3c 30be 5031 47bd
-0.14442201 -0.021075908 0.13826865 0.12451147 0.23448353 -0.21910617 0.16487405 0.15443322
-0.17210576 -0.048631012

weight f4 [5, 10]
00000000: 5375 06be acbf b4bd e077 b03c 165f c7bd
00000010: 0470 78be 48f7 1bbd f1bd 8ebe 6040 543d
00000020: 594b 22be 78bb 303d 73a9 92be b081 5c3e
00000030: 6638 793e c64e 503d 7422 85be 947d 8c3d
00000040: c891 c1bd 73f8 55bc eea5 7bbe 28c7 50bd
00000050: fc99 a7bd a3c3 5d3e 2611 10be 8245 673e
00000060: f39e 79bd 067d 453e e093 c63c 426b 0b3e
00000070: a519 9b3e e02d f33d d0dd 55bd 118a e1bd
00000080: be62 833e af91 3f3c f852 873e 6ac3 1d3e
00000090: bef5 99be 8b42 3b3d 8951 1b3d 9275 4c3e
000000a0: f06d 123e 59a8 4d3e 80cf 9d3d de19 1a3d
000000b0: f09f f03d 2a7c 52be e329 9fbe 592d b93c
000000c0: afe3 6bbe 27d5 993e
-0.13130693 -0.08825621 0.021541536 -0.09734933 -0.2426148 -0.038077623 -0.2787929 0.051819205
-0.15849055 0.043147534 -0.28644904 0.21533847 0.2433792 0.050856374 -0.26002848 0.068598896
-0.09451634 -0.013059723 -0.24575016 -0.05097118 -0.08183667 0.2165666 -0.14069042 0.22585109
-0.0609426 0.19285974 0.024240434 0.13615134 0.30293003 0.11873984 -0.05221349 -0.11012662
0.25661272 0.0116924485 0.26430488 0.15406576 -0.300703 0.045717757 0.037919555 0.19966725
0.1429975 0.20083751 0.07705593 0.037622325 0.11749256 -0.20555177 -0.31086645 0.022604631
-0.23036073 0.30045435

bias f4 [5]
00000000: b0c0 4bbd 0456 70b4 136c c6bd 629b 043e
00000010: 7e2f 88be
-0.049744308 -2.2383034e-07 -0.09688582 0.12949899 -0.26598734

weight f4 [3, 5]
00000000: 08cb a63e c19a 06be 7ebf c13e 7796 b93e
00000010: 2b40 883e e242 babe 79b4 b4bd 409f 193e
00000020: 6225 863e bae6 273e f065 4d3e 0943 d5bc
00000030: ff23 a6be ebbc 313e e025 9fbd
0.32576776 -0.13144971 0.3784141 0.36247608 0.26611456 -0.36379153 -0.08823485 0.15002155
0.26200396 0.16396609 0.20058417 -0.026032941 -0.32449338 0.17357223 -0.07770896

bias f4 [3]
00000000: e897 d1be 9c6f 75be 2ec0 04bf
-0.40936208 -0.23968357 -0.5185574
