models/Part3.pth (torch, 8135 bytes, 6 tensors)

weight f4 [50, 3]
0	0x3ed06d4e	0.40708393
1	0x3e5b4394	0.21412498
2	0xbf0de92b	-0.5543391
3	0xbe3d5d20	-0.18492556
4	0xbe07f748	-0.13277924
5	0x3db4e270	0.08832252
6	0x3ea08e94	0.31358778
7	0xbe1febf9	-0.1561736
8	0xbf0ca22a	-0.5493494
9	0xbea7a8f8	-0.327461
10	0x3e639788	0.22225773
11	0xbe4f4cae	-0.20244095
12	0xbe25e296	-0.16199717
13	0xbe399934	-0.18124849
14	0xbe469d98	-0.19396055
15	0x3e832d25	0.2562038
16	0x3e30877c	0.17239183
17	0xbe0a772d	-0.13522024
18	0x3e381019	0.17974891
19	0x3e727ff3	0.23681621
20	0xb9e3b35b	-0.00043430444
21	0x3f07f338	0.531055
22	0x3ddb432c	0.107061714
23	0x3f0f8b35	0.5607179
24	0xbeff4e7c	-0.49864566
25	0x3ed42294	0.4143263
26	0xbe90bf8f	-0.28271148
27	0xbde00600	-0.109386444
28	0xbef9eee2	-0.48815066
29	0x3c3246af	0.01088111
30	0x3e5a014f	0.21289562
31	0xbef17c61	-0.47165206
32	0x3ee88286	0.4541208
33	0xbe0da44c	-0.13832206
34	0x3f0c799e	0.54873073
35	0x3ee50f1b	0.44738087
36	0xbf029a85	-0.5101703
37	0x3eca4204	0.3950349
38	0xbd481250	-0.04884559
39	0xbde98ba3	-0.11403587
40	0xbeade640	-0.3396473
41	0x3e3c2cc1	0.18376447
42	0x3ec3bc10	0.38229418
43	0x3ed53c41	0.41647533
44	0xbecdd8cb	-0.40204462
45	0x3e711316	0.23542437
46	0xbe357f74	-0.17724401
47	0x3edbd51d	0.4293603
48	0x3d87bdc0	0.06627989
49	0xbf0cf1f7	-0.5505671
50	0xbea608da	-0.32428628
51	0xbd781088	-0.06056264
52	0xbea6217b	-0.3244742
53	0x3f071aec	0.52775455
54	0xbe9a90ae	-0.30188507
55	0x3e2a5e71	0.16637589
56	0x3e541cbe	0.2071409
57	0xbee135cb	-0.43986353
58	0x3ee1d46a	0.44107372
59	0x3f0de116	0.5542158
60	0x3ee0ceaf	0.43907687
61	0x3e5efbfa	0.21775809
62	0xbe79c36b	-0.24390952
63	0x3e8d9af5	0.27657285
64	0x3ed70205	0.41993728
65	0xbe5ca216	-0.21546206
66	0x3e1eb450	0.15498471
67	0x3c9d4020	0.019195616
68	0xbf08ca1b	-0.5343339
69	0xbd9a7938	-0.07542652
70	0x3f0ddc0e	0.554139
71	0x3dadc4eb	0.08484825
72	0x3ebc0ed6	0.3673007
73	0x3e208a85	0.15677841
74	0xbdd5996f	-0.10429656
75	0x3ec6dc9f	0.38840196
76	0x3d662b1c	0.056193456
77	0x3f018b0f	0.5060281
78	0x3ef4d657	0.47819778
79	0x3ee04dec	0.4380945
80	0x3eca41e6	0.39503402
81	0xbf106a61	-0.5641232
82	0xbec569f5	-0.385574
83	0xbe6672b6	-0.22504696
84	0x3dab0eb1	0.083524115
85	0xbd0ea6e4	-0.034827128
86	0xbe839656	-0.25700635
87	0xbe88272f	-0.26592395
88	0xbe6018e3	-0.21884494
89	0x3ea4c272	0.321796
90	0xbf0bc0c4	-0.5459101
91	0x3e886ef2	0.26647145
92	0x3aba1a00	0.0014198422
93	0xbdd6cf2c	-0.10488734
94	0xbd51dcb9	-0.05123589
95	0xbf0dfaf7	-0.55461067
96	0x3db27ea0	0.08715558
97	0x3ea68ddf	0.32530114
98	0x3e82e416	0.2556464
99	0x3ddf1340	0.108923435
100	0x3e933e84	0.28758633
101	0xbd230620	-0.039800763
102	0x3e3f8a34	0.18705064
103	0x3eb09987	0.34492132
104	0x3eabf404	0.33584607
105	0x3db78eb8	0.08962768
106	0xbda54e1c	-0.08071539
107	0xbcec9a80	-0.028882265
108	0xbeb39c92	-0.3508039
109	0xbf07334f	-0.52812666
110	0xbeec169d	-0.46111003
111	0x3ee47428	0.4461987
112	0x3bab2542	0.0052229473
113	0xbf04d3d1	-0.51885706
114	0xbf0691a0	-0.52565956
115	0x3eca4aad	0.39510098
116	0x3ed1b04f	0.40954825
117	0x3e6d9b42	0.23203757
118	0xbeb48279	-0.35255793
119	0x3f08b7f2	0.5340568
120	0xbec70c1c	-0.38876426
121	0x3eac181d	0.33612147
122	0x3e37dcfa	0.1795539
123	0xbbcc7ed5	-0.0062407055
124	0xbf0879a2	-0.53310597
125	0xbd3da701	-0.046301845
126	0xbefc341c	-0.49258506
127	0x3ed308af	0.41217563
128	0x3f0a7494	0.54084134
129	0x3ea737f9	0.3265989
130	0x3ee6cfd5	0.45080438
131	0x3e24cb25	0.16093118
132	0x3f0d98c3	0.5531122
133	0xbeca18c3	-0.39472017
134	0xbdd4ca1a	-0.1039011
135	0x3ed8d677	0.42351124
136	0x3e0ee3ce	0.13954088
137	0xbf01cac5	-0.50700027
138	0xbe2ff5c1	-0.17183591
139	0xbe996ecf	-0.29967353
140	0x3e9e6590	0.3093686
141	0x3ebe4828	0.37164426
142	0xbeb1cac8	-0.34725022
143	0xbf0f2643	-0.5591776
144	0x3ed79265	0.42103878
145	0x3ee960ba	0.4558161
146	0x3d55b1c7	0.052171495
147	0xbed08862	-0.40729052
148	0x3d48ac30	0.048992336
149	0xbe5278b6	-0.2055386

bias f4 [50]
0	0x3ef55e38	0.47923446
1	0xbe7fc619	-0.24977912
2	0x3ea4d20a	0.32191497
3	0xbee04c20	-0.4380808
4	0xbea4f95f	-0.32221505
5	0x3f0355d4	0.5130284
6	0x3e7838c1	0.242404
7	0xbe83328a	-0.25624496
8	0xbee16529	-0.44022492
9	0xbe3ffa44	-0.18747813
10	0x3f042bc7	0.516293
11	0x3f077cf0	0.52925014
12	0x3e11358a	0.1418058
13	0x3e4c9628	0.19979155
14	0x3e47c12e	0.19507286
15	0xbf0df380	-0.55449677
16	0xbe5a754e	-0.2133381
17	0x3e5ea48d	0.21742459
18	0xbe4e70f4	-0.20160276
19	0x3ed6d015	0.4195563
20	0x3e96125c	0.29310882
21	0xbe117e61	-0.14208366
22	0xbedaae8b	-0.4271129
23	0xbf06b358	-0.52617407
24	0x3e8169b4	0.25275958
25	0x3ca544cb	0.020174405
26	0xbe73d7dc	-0.23812813
27	0xbe623748	-0.220914
28	0x3ed71528	0.42008328
29	0xbce8d19d	-0.028420264
30	0xbe9a0dd2	-0.3008867
31	0x3e31431e	0.1731076
32	0x3d59e7dc	0.053199634
33	0xbeff5ff6	-0.498779
34	0xbda563a6	-0.08075647
35	0xbe3a7ea0	-0.18212366
36	0xbea89677	-0.32927296
37	0x3e9a3d82	0.30125052
38	0x3ebfd4b8	0.3746698
39	0xbe0180bb	-0.12646763
40	0xbe923700	-0.28557587
41	0x3d196903	0.037453663
42	0xbede5dd5	-0.43430963
43	0xbdbcbf13	-0.09216132
44	0x3e592ea7	0.21209203
45	0xbe1ec50d	-0.15504856
46	0xbe929331	-0.28627923
47	0xbd922e4a	-0.07137735
48	0xbe97b098	-0.29626918
49	0xbeb734b0	-0.35782385

weight f4 [20, 50]
0	0xbc99cb24	-0.018773623
1	0x3d63f580	0.05565405
2	0xbe006753	-0.12539415
3	0xbdd90b01	-0.10597802
4	0xbe019e04	-0.12657934
5	0x3d86aa58	0.06575459
6	0xbdfb5ef4	-0.1227397
7	0xbde52713	-0.111890934
8	0x3dd4dd64	0.103937894
9	0xbda8d619	-0.08243961
10	0x3de5a9e2	0.11214043
11	0xbdaca049	-0.084290095
12	0xbd9427c0	-0.07234144
13	0x3e0f3b2d	0.13987418
14	0xbd593ca4	-0.053036347
15	0xbbb06e80	-0.0053842664
16	0x3d912b06	0.07088284
17	0xbd57527a	-0.05256889
18	0xbe07715f	-0.13226841
19	0xbdc738f6	-0.09727661
20	0xbd9b1ed6	-0.07574241
21	0xbdec847a	-0.115487054
22	0xbdbc4b30	-0.091940284
23	0xba8afe80	-0.0010604411
24	0x3e0571fb	0.13031761
25	0xbdfd4494	-0.12366596
26	0x3d86e1e6	0.065860555
27	0xbc56ed90	-0.013118163
28	0x3c9cfef0	0.019164532
29	0xbdf26eec	-0.11837563
30	0xbd0e78b2	-0.034783073
31	0x3de7ba2e	0.11314808
32	0xbdeb8863	-0.11500623
33	0x3dfc5876	0.1232156
34	0xbe04b3ab	-0.12959163
35	0xbd7da86a	-0.06192819
36	0x3c4cacf0	0.012492403
37	0xbcdf7050	-0.027275234
38	0xbe03c954	-0.1286977
39	0x3d68e220	0.056856275
40	0xbb216d80	-0.0024631917
41	0x3c4addc0	0.012381971
42	0x3b373f40	0.0027961284
43	0xbd843a5f	-0.06456446
44	0xbc697220	-0.014248401
45	0x3cba4308	0.022737041
46	0xbe0cbd6d	-0.13744135
47	0xbdd949d9	-0.106097884
48	0x3e0e12e5	0.13874395
49	0xbd5be8aa	-0.053688683
50	0xbd8c2a11	-0.06843961
51	0x3d3bdb9c	0.045863733
52	0x3daf5588	0.08561236
53	0xbe043064	-0.12909085
54	0x3dfaac12	0.12239851
55	0xbd65112a	-0.055924572
56	0x3df33be2	0.11876656
57	0xbc7f5080	-0.015583158
58	0x3d793cb8	0.06084892
59	0x3d110c98	0.0354124
60	0xbd78407a	-0.060608365
61	0x3df48316	0.11939065
62	0x3c2dd490	0.010609761
63	0xbe03c8a8	-0.12869513
64	0xbdb07c8c	-0.086175054
65	0x3ddb7bd6	0.10716979
66	0xbded293a	-0.11580129
67	0xbd3890dc	-0.045060024
68	0xbd42558a	-0.047444858
69	0xbd26fec2	-0.0407703
70	0xbd527144	-0.05137755
71	0xbce52d30	-0.027975649
72	0xbd8b07ca	-0.06788595
73	0x3dc58f70	0.09646499
74	0xbc922a64	-0.017842479
75	0x3dc7f6d8	0.097638786
76	0x3b83cba0	0.0040220767
77	0xbde9d975	-0.1141843
78	0x3ca28560	0.019838989
79	0x3de95aae	0.11394249
80	0x3d3a7a2c	0.04552667
81	0x3d9bacc2	0.0760131
82	0x3e0cb097	0.13739239
83	0x3d759058	0.05995211
84	0xbce37b34	-0.027768709
85	0xbdc1ebb5	-0.09468786
86	0xbde02ab4	-0.10945645
87	0xbdbb3918	-0.09141749
88	0xbc552270	-0.013008699
89	0xbdffd3f8	-0.12491602
90	0xbd95b9be	-0.07310818
91	0xbc42f0c0	-0.01189822
92	0xbdaeb165	-0.08529929
93	0xbe0fdfd1	-0.14050223
94	0xbdcd41ee	-0.10022341
95	0x3dbbfe40	0.09179354
96	0x3d26f284	0.040758625
97	0xbe0940f0	-0.13403678
98	0xbb982340	-0.004642874
99	0x3dfc6482	0.12323858
100	0xbe06f278	-0.13178432
101	0xbc4e4d70	-0.012591705
102	0xbb8fe6e0	-0.004391536
103	0xbde90b1b	-0.11379071
104	0xbdfcdc96	-0.12346761
105	0x3d074b00	0.03303051
106	0x3d9cff3e	0.07665871
107	0xbd7afe52	-0.061277695
108	0xbc0fa050	-0.008766249
109	0x3d997780	0.07493496
110	0xbd81d673	-0.06339731
111	0xbe0c5609	-0.13704695
112	0xbd67dfb6	-0.05660983
113	0xbd888c4d	-0.06667385
114	0xbc3dd8c0	-0.011587322
115	0xbdb0fe5a	-0.08642264
116	0xbc217030	-0.009853408
117	0xbd2c2e08	-0.042036086
118	0x3cce1e70	0.025160998
119	0x3e0f3401	0.13984682
120	0x3e0af2d7	0.13569199
121	0xbe027679	-0.12740506
122	0x3ce38c80	0.027776957
123	0x3dfd4652	0.12366928
124	0xbc335660	-0.010945886
125	0xbd7c7498	-0.06163463
126	0x3de841e2	0.11340691
127	0xbe0f4d60	-0.1399436
128	0xbd70688c	-0.058693454
129	0xbd05465e	-0.03253781
130	0x3e0e88e9	0.13919415
131	0x3e075099	0.1321434
132	0x3dbc8b90	0.09206307
133	0xbb096480	-0.0020964444
134	0x3dbb1b8a	0.09136112
135	0xbda290e8	-0.07937795
136	0xbd840016	-0.06445329
137	0x3db6966c	0.089154094
138	0xbd999798	-0.07499617
139	0xbda9b79a	-0.08286972
140	0xbd446448	-0.0479472
141	0xbd82df72	-0.06390275
142	0x3d8d1a0a	0.06889732
143	0xbe0fdf46	-0.14050016
144	0xbd4d8142	-0.050172098
145	0xbd83ab15	-0.06429116
146	0xbdc9cd86	-0.098536536
147	0x3ca59538	0.020212755
148	0xbdc2b460	-0.0950706
149	0xbdc88098	-0.09790152
150	0x3dc8a42f	0.097969405
151	0x3c8232a1	0.015893282
152	0xbc51b11d	-0.012798575
153	0x3d716d20	0.05894196
154	0xbc141420	-0.009038001
155	0x3d6c3816	0.057670675
156	0x3d7aa149	0.06118897
157	0xbc391efc	-0.011298891
158	0x3da6189c	0.081101626
159	0xbde14027	-0.10998564
160	0x3d0f882d	0.035041977
161	0x3e12345d	0.14277788
162	0xbd4219da	-0.047387935
163	0x3d9a7d0c	0.07543382
164	0xbe047816	-0.12936434
165	0xbe048902	-0.1294289
166	0xbd96ef3c	-0.07369849
167	0x3d8bde36	0.06829493
168	0x3d788a48	0.06067875
169	0x3dd2235a	0.10260649
170	0xbc1705d9	-0.009217703
171	0x3ddcfc3b	0.10790297
172	0x3d81fe44	0.063473254
173	0x3dc56af6	0.09639542
174	0x3d647380	0.055774212
175	0x3c16fb84	0.009215239
176	0x3d4d3e41	0.050108198
177	0xbdfe1bb0	-0.12407625
178	0x3dc74a35	0.09730951
179	0xbd07c408	-0.033145934
180	0xbca7a618	-0.020464942
181	0x3cb7c9f6	0.02243517
182	0xbbf17873	-0.007369095
183	0xbd44c72c	-0.048041508
184	0x3d206dc0	0.039167166
185	0xbdd365b6	-0.10322134
186	0xbdd0b4c0	-0.10190725
187	0xbd670f5b	-0.05641113
188	0xbd46e06d	-0.048553873
189	0xbd548073	-0.05188031
190	0xbe0051bd	-0.1253118
191	0x3baaf889	0.005217616
192	0x3b77cb2a	0.0037810304
193	0x3d19d438	0.037555903
194	0xbd4a7b9c	-0.04943429
195	0xbdda3fdf	-0.10656714
196	0x3d464287	0.04840329
197	0x3d9d8cfb	0.076929055
198	0x3c9396cc	0.018016241
199	0xbd435b86	-0.047694705
200	0x3db841ae	0.089969024
201	0xbd5c6496	-0.053806864
202	0x3e08d82b	0.13363712
203	0x3d5943c0	0.053043127
204	0x3e066aef	0.1312673
205	0xbe04b560	-0.12959814
206	0x3d78bfb4	0.060729697
207	0xbe06d908	-0.13168728
208	0x3db0f752	0.086409226
209	0x3e0f9dc3	0.14025025
210	0xbd7b57d9	-0.061363075
211	0xbcfa81c8	-0.030579463
212	0x3da81804	0.082077056
213	0x3d260bc8	0.04053858
214	0xbcefbf4a	-0.029266018
215	0xbd93fff8	-0.072265565
216	0xbe0b3e55	-0.13597997
217	0x3d661308	0.056170493
218	0xbdee9e39	-0.11651272
219	0x3d3fbb0d	0.046809245
220	0x3d104075	0.03521772
221	0x3d5c1c35	0.053737838
222	0x3e0a2ecd	0.13494416
223	0x3d15501d	0.036453355
224	0x3d30fcb9	0.043209765
225	0xbdcf006d	-0.10107503
226	0xbbd57caf	-0.0065151076
227	0x3bcbf3a0	0.0062241107
228	0x3d30e8e5	0.043190856
229	0x3d24f8e8	0.040276438
230	0x3d8b9e1c	0.06817266
231	0xbdf76541	-0.120798595
232	0xbdc76c9f	-0.09737515
233	0xbd918c62	-0.07106854
234	0x3daa93c1	0.08328963
235	0x3d974d7a	0.07387824
236	0xbd2f66c4	-0.042822614
237	0x3b64c575	0.0034907733
238	0xbd08a88b	-0.03336386
239	0xbdf276a2	-0.11839034
240	0xbdcbfba1	-0.09960104
241	0x3cf57920	0.029964983
242	0xbdcbd478	-0.099526346
243	0xbd57d4c1	-0.052693132
244	0xbcbfd7ac	-0.02341827
245	0xbda4e060	-0.08050609
246	0xbda150af	-0.07876717
247	0xbdcf11c8	-0.101108134
248	0x3d9c0051	0.07617248
249	0x3d000c5c	0.031261787
250	0x3dec14fe	0.115274414
251	0x3e0ec17b	0.13940994
252	0xbd4aa9f2	-0.04947848
253	0x3cf3c9c0	0.029759288
254	0xbd7698b6	-0.06020423
255	0xbdacafce	-0.084319696

bias f4 [20]
0	0xbe0a5de2	-0.13512376
1	0xbe032498	-0.12806928
2	0xbda031b4	-0.0782198
3	0x3d1342a3	0.03595222
4	0xbd8c1fd6	-0.0684201
5	0xbdc7467a	-0.09730239
6	0xbe06eaa0	-0.1317544
7	0x3dec9f8b	0.11553868
8	0xbd3aeb71	-0.04563469
9	0x3d8cd386	0.068762824
10	0xbe0239af	-0.12717317
11	0x3e083fa7	0.13305531
12	0x3b102415	0.0021994163
13	0xbdfa5d78	-0.12224859
14	0x3d5ae0e7	0.05343714
15	0x3d23411c	0.039857015
16	0xbc60dfd0	-0.013725236
17	0x3ddb1fc3	0.106994174
18	0xbd55c97c	-0.052194104
19	0xbd7dd46a	-0.061970152

weight f4 [3, 20]
0	0xbd2c5258	-0.042070717
1	0xbe501903	-0.20322041
2	0x3e378272	0.17920855
3	0xbe1009d9	-0.14066257
4	0xbdf6fcf0	-0.12059963
5	0x3e50eb08	0.20402157
6	0xbd119028	-0.03553787
7	0xbdba18fa	-0.09086795
8	0xbe1426dd	-0.1446795
9	0x3d049ddf	0.03237712
10	0xbe10ad44	-0.14128596
11	0x3d80c9f1	0.06288517
12	0xbcfd6c0c	-0.03093531
13	0x3dd66e84	0.10470298
14	0xbc3603a1	-0.011109264
15	0x3d51bcb1	0.05120534
16	0xbd21bd5c	-0.039487228
17	0xbe0b26de	-0.13589045
18	0x3d7e80f9	0.062134717
19	0x3bee6702	0.007275463
20	0xbda44504	-0.08020976
21	0x3e4867aa	0.19570795
22	0x3da40fe0	0.080108404
23	0x3e6ea3f8	0.23304737
24	0x3d549b9f	0.051906224
25	0x3de850c4	0.1134353
26	0x3e4f3b22	0.20237401
27	0xbca91c5f	-0.020643411
28	0xbe4e275f	-0.20132206
29	0x3c7f9f40	0.015601933
30	0xbc0d8ca9	-0.008639493
31	0xbe16c0f3	-0.14722042
32	0x3d78b9a9	0.060723934
33	0xbe47b292	-0.19501713
34	0xbe15ebf5	-0.14640792
35	0x3e2d7035	0.16937335
36	0x3e1dc572	0.1540735
37	0x3cc1aebf	0.023642896
38	0x3c44d462	0.012013527
39	0xbe1fe380	-0.15614128
40	0xbd116ea4	-0.035505906
41	0xbd8ea716	-0.06965463
42	0x3e073942	0.13205436
43	0x3ce8a0fe	0.02839708
44	0xbe31d32b	-0.1736571
45	0xbe5e0fff	-0.2168579
46	0x3d47dfc0	0.04879737
47	0x3e1f4b56	0.15556082
48	0x3e4af83f	0.19821261
49	0x3e494a18	0.19657171
50	0xbb96fd43	-0.004607828
51	0xbdd22db2	-0.10262622
52	0xbe0afe8c	-0.13573664
53	0x3d27b593	0.040944647
54	0xbe407984	-0.18796355
55	0x3d84d3bf	0.064857
56	0x3e2a0882	0.16604808
57	0x3e4d5060	0.20050192
58	0xbdb0256e	-0.08600889
59	0x3e2f1e3a	0.17101374

bias f4 [3]
0	0x3e3500ed	0.17676134
1	0x3e0733ef	0.13203405
2	0xbd89a7ff	-0.06721496
